…
      "C:\\Program Files\\Anaconda3\\lib\\site-packages\\ipykernel_launcher.py:148: UserWarning: Update your `BatchNormalization` call to the Keras 2 API: `BatchNormalization(epsilon=1e-06, axis=1, momentum=0.9)`\n"
     ]
    },
    {
     "name": "stdout",
     "output_type": "stream",
     "text": [
      "\n",
      "\n",
      "===========================\n",
      "Testing: with loss function hinge\n",
      "===========================\n",
      "\n",
      "_________________________________________________________________\n",
      "Layer (type)                 Output Shape              Param #   \n",
      "=================================================================\n",
      "conv2d_31 (Conv2D)           (None, 64, 64, 32)        2432      \n",
      "_________________________________________________________________\n",
      "batch_normalization_22 (Batc (None, 64, 64, 32)        256       \n",
      "_________________________________________________________________\n",
      "max_pooling2d_14 (MaxPooling (None, 32, 32, 32)        0         \n",
      "_________________________________________________________________\n",
      "conv2d_32 (Conv2D)           (None, 32, 32, 32)        9248      \n",
      "_________________________________________________________________\n",
      "batch_normalization_23 (Batc (None, 32, 32, 32)        128       \n",
      "_________________________________________________________________\n",
      "flatten_9 (Flatten)          (None, 32768)             0         \n",
      "_________________________________________________________________\n",
      "dense_17 (Dense)             (None, 128)               4194432   \n",
      "_________________________________________________________________\n",
      "dropout_9 (Dropout)          (None, 128)               0         \n",
      "_________________________________________________________________\n",
      "dense_18 (Dense)             (None, 10)                1290      \n",
      "=================================================================\n",
      "Total params: 4,207,786\n",
      "Trainable params: 4,207,594\n",
      "Non-trainable params: 192\n",
      "_________________________________________________________________\n"
     ]
    },
    {
     "name": "stderr",
     "output_type": "stream",
     "text": [
      "C:\\Program Files\\Anaconda3\\lib\\site-packages\\keras\\models.py:944: UserWarning: The `nb_epoch` argument in `fit` has been renamed `epochs`.\n",
…
